bc_pusht_state2action.pt (torch, 21181 bytes, 6 tensors)

0.weight f4 [64, 2]
000000 31 64 81 3e 4d f0 16 3f e9 47 1a bd 78 a4 94 be
       0.25271752 0.5896042 -0.037666235 -0.2903173
000010 ee f6 21 bf d4 8e 26 bd e9 b9 37 3f ec 71 8d 3e
       -0.6326741 -0.040663555 0.7176805 0.27625978
000020 a7 4e 50 3e c3 54 3a 3a 9e a7 b5 3e c7 9f 1e be
       0.20342503 0.00071079674 0.35479444 -0.15490638
000030 c3 5e 05 3f 1f 96 22 3f ae 2c 2e 3f 0e 34 fd 3e
       0.5209772 0.63510317 0.68036926 0.49453777
000040 db b2 f7 be 0b 9d 03 3f 56 cf cd 3e 53 b0 61 3d
       -0.48378643 0.51411504 0.40197247 0.055099797
000050 79 45 9d bd ac a7 fe bd bf 04 be be 4d 7d 1e 3f
       -0.076792665 -0.124343246 -0.37112996 0.61909944
000060 31 f7 b4 3e 38 ed 9a be af 48 2f 3f de 24 1d bd
       0.35344842 -0.3025911 0.6847028 -0.038365237
000070 67 fd 9c be 12 75 80 3e 8a 7f 17 3f 72 29 c5 3e
       -0.3066208 0.25089318 0.59178984 0.38508183
000080 75 a7 9e be 48 1f 2b bf 64 af f7 3e 7e de 08 be
       -0.30987135 -0.66844606 0.48376 -0.13366124
000090 88 b8 c3 be 0b 67 3f 3f 4d fe 0d 3f ee e6 05 bf
       -0.38226724 0.74766606 0.5546616 -0.52305496
0000a0 21 d9 d2 3e 2a e1 1c bf 40 4d 31 bf 00 3c 24 bf
       0.4118128 -0.61281073 -0.692585 -0.6415405
0000b0 59 e8 28 bf ca 8e 27 bf 46 7d 0d 3f 0a d3 f2 be
       -0.65979534 -0.65452254 0.5526928 -0.47426635
0000c0 39 ac 03 3f 6a 78 b2 3b 62 38 2a be f7 47 36 3e
       0.51434666 0.0054464834 -0.16623071 0.1780089
0000d0 84 d6 4d be d1 3b 31 bf a9 e8 0b bf db f9 b9 3e
       -0.20101362 -0.692319 -0.54651886 0.36323437
0000e0 ac 69 b3 bd 52 f3 31 3f 3f c3 00 3f ea c3 59 be
       -0.0876039 0.695119 0.5029792 -0.21266142
0000f0 b9 67 6e 3e ca c2 b9 be 03 65 3d be 95 19 0a 3f
       0.23281755 -0.36281425 -0.18495564 0.53945285
000100 f6 a7 18 bf 83 90 94 be f2 6e be be a3 e2 ac 3e
       -0.5963129 -0.29016504 -0.3719402 0.3376666
000110 46 05 9d 3e e9 db 20 3f 79 da 99 bd 7a a4 13 3f
       0.30668086 0.62835556 -0.075123735 0.57672846
000120 e1 b4 99 bd 0a 23 a8 be 30 62 00 bf 7a 06 21 bf
       -0.07505203 -0.32839233 -0.5014982 -0.6290051
000130 60 30 dc be 2b a7 12 3f 34 ac 24 bf 4c 44 2c 3f
       -0.43005657 0.5728633 -0.6432526 0.6729171
000140 ab 18 be 3e 50 4e de be a2 9b 3e bd 79 95 02 3f
       0.37128195 -0.43419123 -0.04653514 0.5100933
000150 b6 88 1a 3f 3b 0b 1b bf 04 a1 37 be 25 57 01 bf
       0.60364854 -0.6056401 -0.17932516 -0.50523597
000160 f2 33 1a 3e 3f 02 93 3e 3d a2 1a bf b8 6b 2f bf
       0.15058878 0.2871265 -0.60403806 -0.6852374
000170 57 13 fb be 06 ea 66 be 05 13 49 3e a7 50 a6 be
       -0.49038193 -0.2255021 0.19636162 -0.32483408
000180 ae 17 e0 3e 1e cc 0a 3f 14 bb 29 3f ef 9d 0d 3e
       0.43768066 0.5421771 0.66301084 0.13829778
000190 a3 0f b9 3e d4 a0 14 3e bc 9d 1e 3f 93 9e 3b be
       0.36144742 0.14514476 0.61959434 -0.1832221
0001a0 3b 30 0b 3f 9c 19 79 3e c2 68 1d bf eb eb d6 bd
       0.5437047 0.24326175 -0.6148797 -0.104942165
0001b0 93 5a 25 bf 0a af 5c be e1 30 26 3f b6 a2 08 3f
       -0.6459133 -0.21551147 0.64918333 0.5337328
0001c0 1c 90 53 be 8b 5b 03 3f 32 cb 1b bf d1 ef 12 3e
       -0.20660442 0.5131156 -0.60856926 0.14349295
0001d0 6b 72 1f bf c7 8e b5 3e 73 7e 0c bf da bc 1d 3e
       -0.6228396 0.35460493 -0.54880446 0.15404072
0001e0 c4 9e c4 3e 48 74 46 bc 2f 89 03 3f d0 3f c5 be
       0.3840238 -0.012112685 0.513812 -0.38525248
0001f0 f6 35 18 3e de 87 ff 3d 59 72 14 3e 16 65 cc 3c
       0.14864334 0.124770865 0.14496745 0.024950545

0.bias f4 [64]
000000 52 6c 1f 3d fe e9 ab 3e 8b 8b e9 3e e6 2b 1b bf
       0.03892166 0.3357696 0.45614275 -0.6061386
000010 17 16 d5 3b d8 fd 30 3f bf e0 00 3f a7 3b 31 3f
       0.0065028775 0.69137335 0.50342935 0.6923165
000020 8f c8 fb 3e 10 ae b5 bc ce 62 3e bd 26 0b 24 3e
       0.49176452 -0.022177726 -0.046480946 0.16019878
000030 e4 d5 0e 3f 8c a9 2d 3d a1 9b fd be 94 fb 9a be
       0.5579512 0.04239802 -0.49532798 -0.30270064
000040 6b f5 1a bf 63 a8 27 3d 42 03 39 3f c9 ed 13 bf
       -0.6053073 0.04093207 0.72270596 -0.57784706
000050 b7 c5 d4 3e 6e 92 dd 3e f3 58 6f 3e b3 76 7a 3e
       0.41557094 0.4327578 0.23373775 0.24459343
000060 e6 a1 dd bd 47 32 14 3f dc b7 e5 be 8d 5f 10 3e
       -0.10821895 0.5788922 -0.44866836 0.1409895
000070 85 17 91 be 97 77 54 bd 0a df 0f 3f 85 0d dd 3e
       -0.28338256 -0.051871862 0.56199706 0.43174377
000080 b0 35 0c bf 5d af 01 bf 62 96 03 3f 23 4f 01 bf
       -0.5476942 -0.5065821 0.5140134 -0.5051138
000090 10 ce 1c 3c e2 07 9e 3e 1f 91 4a 3e de 3d 2e 3e
       0.0095706135 0.3086539 0.19781922 0.17015788
0000a0 02 c9 e2 bd 4e ae 22 bf 42 4a 88 3e e2 b1 e5 bd
       -0.110734954 -0.6354722 0.26619154 -0.11215569
0000b0 c1 f0 95 3e 5d f8 a6 3d 69 d3 2c 3f ce e3 29 bf
       0.29285243 0.0815284 0.67510086 -0.6636323
0000c0 ed c8 35 bd 01 01 04 bf 92 ca 09 bf 57 e4 35 3f
       -0.04438107 -0.5156403 -0.5382472 0.71051544
0000d0 ed 99 11 3f 7c 39 c5 3d 50 11 cf 3e 04 e3 92 be
       0.568755 0.09630105 0.40442896 -0.28688824
0000e0 eb 3f 00 3f 28 7e 82 be 6c 74 b4 bd 21 43 dd be
       0.5009753 -0.25486875 -0.08811268 -0.43215278
0000f0 3c c8 eb be c3 4d 0f be 04 f6 7d 3d 33 c7 5d 3e
       -0.46051204 -0.13994507 0.062002197 0.2165802

2.weight f4 [64, 64]
000000 0a 92 82 3d 34 75 ba bd 3a f0 8c 3d f8 9a 68 bd
       0.06375511 -0.09104386 0.06881757 -0.056788415
000010 70 3a 15 bd 94 30 93 3d a8 52 7c 3b 18 e0 92 3c
       -0.036432683 0.07187 0.0038501415 0.017929122
000020 c2 2c be bd 6c 45 b1 bd 0c 2d c2 3d 8e 6c ee 3d
       -0.092858806 -0.08655819 0.09481248 0.11641799
000030 56 41 a3 bd 80 b1 9c bc c4 e6 6e bd 84 e9 4c bd
       -0.07971446 -0.019127607 -0.058325544 -0.050027385
000040 5a d8 a1 bd 44 0f 43 bd 5c e4 d8 bd 08 30 8c bc
       -0.07902594 -0.04762198 -0.10590431 -0.017112747
000050 ca dc 97 3d 2a 8e a7 bd 0e 2e e0 3d cc 95 8e bd
       0.07415159 -0.081814125 0.10946284 -0.06962165
000060 78 5e 49 bc cc 7d 92 bd c0 2b 4c bc a0 d9 de 3d
       -0.0122905895 -0.071529 -0.012461603 0.108813524
000070 b0 5d f0 3d 37 76 b0 3d d8 93 0d 3d e9 99 b5 bb
       0.117366195 0.08616298 0.034564823 -0.005542029
000080 98 ab 2f bd b8 b0 7b bd 6e a5 de bd 64 08 84 3d
       -0.042888254 -0.06144783 -0.10871397 0.06446913
000090 18 53 95 3c a2 a3 ac bd 10 54 39 bc 84 94 43 bd
       0.018228099 -0.08429648 -0.011311546 -0.047749057
0000a0 98 d8 97 3d ae e0 f5 bd 6c 70 3d 3d d0 5e 5f bc
       0.07414359 -0.12005745 0.046249792 -0.013633445
0000b0 f0 e1 c0 3a 00 ae 3e 3d 45 6d 82 3d a4 12 62 3d
       0.0014715772 0.046552658 0.06368498 0.05519356
0000c0 3c 8b a5 3d c8 b5 3e 3c 18 6f 29 bc 9e cf b9 bd
       0.080831975 0.01164002 -0.010341428 -0.09072803
0000d0 40 9b 8f 3c b0 d5 92 bc a2 6b b9 bd 78 cc a1 bd
       0.017530084 -0.01792416 -0.090537325 -0.079003274
0000e0 30 66 ac bc 87 98 0c bd e0 9e a2 3d 90 26 b7 3d
       -0.02104482 -0.03432515 0.07940459 0.08942902
0000f0 9c c7 eb 3d a0 7b 93 3c ea aa b2 bd 92 a2 be 3d
       0.11512682 0.018003285 -0.087240055 0.093083516
000100 fe bc 8f 3d 62 07 a6 3d 7a 6e c7 3d 4c 5a 75 bd
       0.07018469 0.08106877 0.097378686 -0.059900567
000110 f8 50 cb 3c d4 1d ff bd 78 5c ea bd ac f0 ae bd
       0.024818882 -0.12456861 -0.11443418 -0.08541998
000120 d8 18 d3 bc 15 16 7d 3d f7 c3 3f bd e8 82 92 3d
       -0.025768682 0.061788637 -0.046817746 0.07153875
000130 bd a3 ba bd 60 da c1 3c 46 a6 83 3d 26 13 90 3d
       -0.09113262 0.0236637 0.064281985 0.07034902
000140 5f b4 ba bd 42 25 9f bd a8 4d d2 ba 10 ac ea 3b
       -0.09116434 -0.07770778 -0.0016044872 0.0071616247
000150 be 23 8d bd f8 f4 12 3c 38 07 94 bc 0a 75 dd 3d
       -0.06891583 0.008969538 -0.018069848 0.10813339
000160 ac 3b 19 bd 0c 5a 74 bd d6 22 9e bd 96 a5 a2 bd
       -0.037410423 -0.059656188 -0.07721488 -0.07941739
000170 77 51 87 3c 88 67 e1 3c 98 dd b8 3d 55 8c 8c 3d
       0.016518338 0.027515188 0.09026641 0.06862704
000180 a8 78 a8 bd 48 34 9f 3c 54 19 4b 3d b0 7c 70 bd
       -0.08226138 0.01943411 0.0495847 -0.05871266
000190 9c bc b2 bd e4 b9 45 3d 3c dd 30 bd 4e 46 bb bd
       -0.08727381 0.048272982 -0.043179736 -0.09144269
0001a0 92 d4 9f bd 7a 0e c7 3d 96 39 c3 bd 28 20 3d bd
       -0.078042164 0.09719558 -0.09532468 -0.046173245
0001b0 70 c9 4e 3d 50 72 f6 bd 3c e8 5d 3d 48 43 a5 bc
       0.050485075 -0.12033522 0.054176554 -0.020173684
0001c0 4c 9d 39 3d e0 a1 57 bd 74 f1 2f bd 50 f2 b3 bd
       0.045316026 -0.05264461 -0.042954877 -0.08786452
0001d0 48 62 9e 3c 70 25 f2 bd 32 c1 ec bd d8 9b a8 bc
       0.019333974 -0.11823547 -0.115602866 -0.020582125
0001e0 c6 3c ce bd 50 a6 02 bc 0a 9c c9 bd 30 49 20 bd
       -0.10070185 -0.007974222 -0.09844215 -0.039132297
0001f0 d6 a7 fc bd 1e e2 93 3d 3c e6 73 bd f2 20 c9 bd
       -0.123367 0.07220863 -0.05954574 -0.09820737
000200 e0 61 9a 3d 1c 7f 2f bd 7c 79 a9 bd 65 3c 76 3b
       0.075381994 -0.04284583 -0.082751244 0.003757262
000210 59 97 3c bc d6 8a cd bd 04 01 a5 3d 4f e4 8c bc
       -0.0115106935 -0.100362465 0.08056834 -0.01719871
000220 06 ba 42 bb 66 55 9b 3d a2 b4 a3 bd 94 1c 72 bc
       -0.002971293 0.07584648 -0.07993437 -0.014777321
000230 2c 3a 50 3b 76 83 f4 bd 9f 7b ed bd b8 32 1a 3c
       0.0031772954 -0.11939137 -0.115958445 0.009411506
000240 74 24 05 bd c8 26 91 bd 26 4d 4b 3d cb 5e a1 3d
       -0.032505468 -0.07087475 0.04963412 0.078794084
000250 df f6 57 bd 04 d4 a8 bd c0 ed e9 bd bb e9 01 be
       -0.05272567 -0.08243564 -0.114223 -0.12686817
000260 d5 f4 23 bc 39 7b e6 bd 58 38 34 bd 67 e5 b3 3d
       -0.010007103 -0.112539716 -0.043999046 0.087839894
000270 10 d0 e2 bd 5d 11 8d 3d 35 51 cb 3d 97 f1 f3 bd
       -0.11074841 0.068880774 0.099275984 -0.11911314
000280 66 9b d4 bd e7 92 95 bc 23 6d be 3d bd d1 15 be
       -0.103812024 -0.018258525 0.0929816 -0.1463079
000290 1a f9 ad 3d 60 3e 4b 3d 54 ba 82 bd e0 13 86 bd
       0.08494778 0.049620032 -0.063831955 -0.065467596
0002a0 9b a8 ec bd 70 6b a0 3d 4f b7 30 3d 40 82 d0 3d
       -0.115555964 0.07832992 0.043143567 0.10181093
0002b0 d9 23 c3 bd 80 48 5a bd a8 99 44 bc e3 98 00 3d
       -0.09528322 -0.053291798 -0.011999525 0.031395804
0002c0 e7 08 08 3d 9a 09 a1 3d e2 8e 81 3d a3 a7 e3 bd
       0.033211615 0.078631595 0.06326081 -0.111159585
0002d0 69 57 b3 bd e4 2c a6 bc c4 47 b9 bd 1f f7 07 bd
       -0.087569065 -0.020285077 -0.09046891 -0.033194657
0002e0 01 9e 64 3d a8 36 82 bd d8 c8 0a be 0c 75 08 be
       0.055814747 -0.06358081 -0.13553178 -0.133259
0002f0 2d e2 34 3d b9 0b 34 bd 01 db cb 3c 85 aa f3 bd
       0.04416101 -0.043956492 0.024884703 -0.118977584
000300 a8 70 8e 3c b0 70 28 3d c6 f4 98 3d 08 24 e7 3d
       0.017387703 0.041123092 0.07468562 0.11286169
000310 3e e5 fc 3d e8 f8 38 bd 86 1d d6 bd b0 2f 52 bd
       0.12348412 -0.04515925 -0.1045485 -0.05131501
000320 f8 e6 de bd 36 04 cc 3d 18 fd 59 bd 48 e8 de bc
       -0.108838975 0.09961741 -0.053219885 -0.02721037
000330 50 76 d2 bc be 65 99 bd 20 6d 4b bc 4e 0d 94 bd
       -0.025691181 -0.07490109 -0.012416154 -0.072291
000340 fc 17 33 3d ee 50 f1 bd ca 93 eb bd 84 7f 42 3d
       0.043724045 -0.11783014 -0.11502798 0.04748489
000350 3c 54 c1 bd 88 4e d1 3c b0 47 1d 3d b0 75 73 bd
       -0.094398946 0.025550142 0.038398445 -0.059438407
000360 58 b4 b4 bb d0 1f 2a bd d6 49 f2 3d 68 8b 8d bc
       -0.0055146627 -0.041534245 0.11830489 -0.017278388
000370 58 da df 3d 00 ee aa bc 24 0c 80 bd b2 e7 bb bd
       0.10930318 -0.02086544 -0.06252316 -0.09175052
000380 92 d0 98 bd 90 14 91 3d d8 cb cc bc 08 20 ed bc
       -0.07461657 0.07084 -0.024999544 -0.028945938
000390 3c cf 87 bd b0 73 3e 3d 30 a7 43 bd 22 ab bc 3d
       -0.06631324 0.046497047 -0.047766864 0.092123285
0003a0 88 d8 d8 bc d2 8a b7 bd 7a 87 f4 3d 1a 5c a1 3d
       -0.026470438 -0.08962025 0.119399026 0.07878895
0003b0 d0 fc 02 3b ec 68 5f 3d d0 96 9a 3d 02 6e e0 3d
       0.0019987114 0.05454342 0.075482965 0.10958482
0003c0 30 68 48 bd 68 4c a7 3a 54 7c c0 bd 75 cb 91 bd
       -0.048927486 0.001276386 -0.09398714 -0.071188845
0003d0 00 fe 84 bd e0 ec b8 bc 20 38 9e 3d be 5d 9d bd
       -0.06493759 -0.022573888 0.07725549 -0.076838955
0003e0 1a 83 a4 bd b4 fd de bd 08 71 8e bc a8 0e 56 3d
       -0.08032818 -0.10888234 -0.017387882 0.05226007
0003f0 d2 72 c2 3d f6 d8 3f 3d 50 70 4b 3d 30 a8 9c bd
       0.094945565 0.04683777 0.049667656 -0.07649267

2.bias f4 [64]
000000 f8 0b 63 3d 18 f1 7a 3d f7 a7 1b 3d d0 b3 43 3c
       0.055431336 0.06126508 0.03800198 0.011944726
000010 99 11 e9 bd 9a 14 9f 3d 0a 76 9a bd 00 53 40 3d
       -0.113803096 0.07767601 -0.075420454 0.046954155
000020 10 70 97 bb 66 53 b1 bd 16 d2 2a 3d b9 55 1b bd
       -0.004621513 -0.08658485 0.04170426 -0.03792355
000030 9d 1d 83 bc ea 8f 30 3d c8 01 92 3d 7a 2c e1 3d
       -0.016005332 0.043105997 0.07129246 0.10994811
000040 f5 d4 0a 3e 79 30 9d bb 37 9c 47 3d 57 69 d4 bd
       0.13557799 -0.004797038 0.048732962 -0.103716545
000050 7b 4f b7 3d f8 69 8c 3c 41 ae 12 3e 36 bd 35 3e
       0.089507066 0.017140374 0.14324285 0.1774796
000060 fa d2 7d bd 71 6b 4a 3d 68 44 1f bd 18 1a 67 bd
       -0.06196878 0.04941887 -0.038883597 -0.05642137
000070 14 c4 a6 3d d4 64 06 3e b9 eb ba 3d 36 34 d9 bc
       0.08142868 0.131244 0.09126992 -0.026514154
000080 e9 4c 9b 3d 2e 31 0d 3d 2d 9c d1 bd f7 7d ca 3d
       0.07583029 0.03447073 -0.10234866 0.09887307
000090 75 b8 0b bd 22 92 72 bd c6 c2 dd 3d 20 28 d1 bc
       -0.03411146 -0.059221394 0.10828166 -0.025531828
0000a0 9b 10 85 bd 52 99 9a bd 21 39 06 be 1b 9e a8 bd
       -0.06497308 -0.07548775 -0.1310773 -0.08233281
0000b0 f6 e1 2b bd 30 fa 99 39 54 15 55 bd 29 e0 f3 bc
       -0.04196354 0.00029368838 -0.052022293 -0.029769974
0000c0 eb 19 49 bc a4 09 53 3c b6 a2 03 3e bb 00 8b bd
       -0.012274246 0.0128807165 0.12855038 -0.06787249
0000d0 82 2c c5 bc 48 e7 c5 3d 67 92 36 3d bb ce c4 bc
       -0.024069075 0.09663254 0.044573214 -0.024024358
0000e0 e8 00 ca bd 0c 96 96 3d 5d 75 08 be 7e fe b9 3d
       -0.09863454 0.07352838 -0.1332602 0.09081744
0000f0 6f 96 0e 3d 88 4a 5a 3d 92 c5 20 bd af de 0e be
       0.034811433 0.053293735 -0.039250918 -0.13952135

4.weight f4 [2, 64]
000000 7a eb a4 3d ac 46 5f 3d c5 bb 79 bd a4 89 c8 bd
       0.08052726 0.054510757 -0.060970087 -0.09791878
000010 64 24 af 3a 40 45 09 3d b7 66 1e 3d 90 ca 6a 3d
       0.0013362286 0.033513308 0.038672175 0.057322085
000020 c0 28 f3 bd 18 64 9e bc ab 0d 88 bd e4 5f 85 bd
       -0.11873007 -0.019334838 -0.06643232 -0.0651243
000030 f1 ad 52 3d 9c b1 ac bd e0 35 af 3c 5e ef 02 bc
       0.051435415 -0.08432314 0.021387994 -0.00799164
000040 d9 45 1a 3c ee a8 bb 3d 26 a5 0b 3e 80 8a b6 3b
       0.009416067 0.0916308 0.13637218 0.0055707097
000050 29 df 82 3d 10 53 72 3d d0 b4 2e 3e 6e 21 3f bb
       0.06390221 0.059161246 0.17061162 -0.0029164213
000060 80 b2 c1 bc 64 cb d9 3d 85 ba e3 3d 24 cd 66 bd
       -0.023644686 0.10634497 0.1111956 -0.05634798
000070 93 55 27 bd 12 f2 72 bd 5e 08 e9 bc b2 72 8d bd
       -0.040853094 -0.059312887 -0.028446373 -0.06906642
000080 9c 66 93 bc 95 ed 8b ba ca 8f 9f bd 5e 21 35 bd
       -0.017993264 -0.0010675663 -0.077910975 -0.044221275
000090 cb bd 65 bc b9 0b 3c 3d 51 ad 0f 3e c8 2b 6a bd
       -0.014022301 0.045909617 0.14030959 -0.05717066
0000a0 7f 4a 7b 3d da ef f0 3d f5 62 ae bd 42 92 55 bd
       0.061350342 0.11764498 -0.08514968 -0.052141435
0000b0 0f 02 6b bd 64 fa 3a bd 28 fe b7 bc 0d c0 6a 3d
       -0.05737501 -0.045648947 -0.022460058 0.05731206
0000c0 5b 11 05 bd b2 d6 a8 bd dd 0d 27 bc 33 72 f3 bd
       -0.032487255 -0.08244075 -0.010196176 -0.11887016
0000d0 ea 7e d1 3d 87 a9 a4 3d 69 d9 24 3e 0e 78 35 bd
       0.10229285 0.08040147 0.1609856 -0.044303946
0000e0 50 1e 76 bd 6c 19 5a bd ce 88 5f bd 11 f0 15 3e
       -0.060087502 -0.0532469 -0.054573826 0.1464236
0000f0 08 af 8e bc bc 73 a3 bd fe 65 20 3e 0e bc 01 bd
       -0.017417446 -0.07981059 0.15663907 -0.031673484
000100 44 bb b3 3d 90 1a 83 bb ab 82 b3 bd 3c a3 3c 3d
       0.087759525 -0.004000969 -0.08765157 0.04605411
000110 0e 03 0d bd 64 4a 1d bd be 92 e0 3d aa 16 fe 3d
       -0.03442674 -0.038401023 0.10965489 0.124066666
000120 e8 3b 52 3b 4b 88 be bd f1 b5 9c bc d0 40 e5 3c
       0.0032079164 -0.093033396 -0.019129725 0.027985007
000130 34 f3 ea 3d 42 7d f2 bd dc df a5 bd 00 c4 d3 bb
       0.114721686 -0.11840297 -0.080993384 -0.006462574
000140 0c 77 16 3e 32 d4 17 3e 66 e3 38 3c 72 9a c5 3d
       0.1469385 0.1482704 0.011284685 0.09648599
000150 77 1c 57 bd e6 8f f7 bd af 16 4f bc 4c ea eb 3d
       -0.05251738 -0.12087993 -0.0126396855 0.11519298
000160 99 6e 96 bd 6d 7f 38 bc 94 4f 37 bd b6 95 d1 bd
       -0.073453136 -0.011260849 -0.044753626 -0.10233633
000170 bd 32 bc bd 22 7a a9 3d 29 4e 4e 3c b5 c7 62 bd
       -0.09189365 0.08275248 0.012591877 -0.055366237
000180 d3 e8 8a bd ff 12 e7 bc bb 66 01 3e 96 80 c1 3d
       -0.06782689 -0.0282073 0.12636845 0.09448354
000190 c6 3a 0f 3e 3b 71 d9 bd 7e fc b3 3d 8c 24 02 3d
       0.13987264 -0.106173 0.087883934 0.031773135
0001a0 0e a3 93 bd 2a 1f 86 3d f7 2e d9 bd e2 0a 49 bd
       -0.072088346 0.06548913 -0.10604661 -0.049082644
0001b0 0e de c1 3d b0 f9 56 3d 8c b2 15 3d d8 8d 3f be
       0.09466182 0.052484214 0.03654723 -0.18706453
0001c0 cd d6 5d 3d 23 6e e9 3c 68 27 08 3e e9 6d aa 3d
       0.054159928 0.0284949 0.13296282 0.08321745
0001d0 1c 0f de b9 88 7e 6d bd 76 4d 11 3e 78 a8 ad bd
       -0.00042354397 -0.057981998 0.14189705 -0.084793985
0001e0 c5 df 76 3d 69 5b 40 3c 18 4c b8 bd 49 e9 ab bc
       0.060271997 0.011740544 -0.08998889 -0.020985262
0001f0 c7 4c 95 bd 78 6f 1c 3a 19 68 1a 3d c3 16 14 3d
       -0.07290035 0.0005967538 0.03769693 0.03615452

4.bias f4 [2]
000000 dd 82 14 3d 34 ff 96 3d
       0.036257613 0.07372895
